{"modelTopology":{"class_name":"Model","config":{"name":"model1","layers":[{"name":"input1","class_name":"InputLayer","config":{"batch_input_shape":[null,100,5],"dtype":"float32","sparse":false,"name":"input1"},"inbound_nodes":[]},{"name":"lstm_LSTM1","class_name":"LSTM","config":{"name":"lstm_LSTM1","trainable":true,"units":30,"activation":"tanh","recurrent_activation":"hard_sigmoid","use_bias":true,"kernel_initializer":{"class_name":"VarianceScaling","config":{"scale":1,"mode":"fan_avg","distribution":"normal","seed":null}},"recurrent_initializer":{"class_name":"Orthogonal","config":{"gain":1,"seed":null}},"bias_initializer":{"class_name":"Zeros","config":{}},"unit_forget_bias":null,"kernel_regularizer":{"class_name":"L1L2","config":{"l1":0,"l2":0.01}},"recurrent_regularizer":null,"bias_regularizer":null,"activity_regularizer":null,"kernel_constraint":null,"recurrent_constraint":null,"bias_constraint":null,"dropout":0,"recurrent_dropout":0,"implementation":null,"return_sequences":true,"return_state":false,"go_backwards":false,"stateful":false,"unroll":false},"inbound_nodes":[[["input1",0,0,{}]]]},{"name":"lstm_LSTM2","class_name":"LSTM","config":{"name":"lstm_LSTM2","trainable":true,"units":60,"activation":"tanh","recurrent_activation":"hard_sigmoid","use_bias":true,"kernel_initializer":{"class_name":"VarianceScaling","config":{"scale":1,"mode":"fan_avg","distribution":"normal","seed":null}},"recurrent_initializer":{"class_name":"Orthogonal","config":{"gain":1,"seed":null}},"bias_initializer":{"class_name":"Zeros","config":{}},"unit_forget_bias":null,"kernel_regularizer":{"class_name":"L1L2","config":{"l1":0,"l2":0.01}},"recurrent_regularizer":null,"bias_regularizer":null,"activity_regularizer":null,"kernel_constraint":null,"recurrent_constraint":null,"bias_constraint":null,"dropout":0,"recurrent_dropout":0,"implementation":null,"return_sequences":true,"return_state":false,"go_backwards":false,"stateful":false,"unroll":false},"inbound_nodes":[[["lstm_LSTM1",0,0,{}]]]},{"name":"lstm_LSTM3","class_name":"LSTM","config":{"name":"lstm_LSTM3","trainable":true,"units":30,"activation":"tanh","recurrent_activation":"hard_sigmoid","use_bias":true,"kernel_initializer":{"class_name":"VarianceScaling","config":{"scale":1,"mode":"fan_avg","distribution":"normal","seed":null}},"recurrent_initializer":{"class_name":"Orthogonal","config":{"gain":1,"seed":null}},"bias_initializer":{"class_name":"Zeros","config":{}},"unit_forget_bias":null,"kernel_regularizer":{"class_name":"L1L2","config":{"l1":0,"l2":0.01}},"recurrent_regularizer":null,"bias_regularizer":null,"activity_regularizer":null,"kernel_constraint":null,"recurrent_constraint":null,"bias_constraint":null,"dropout":0,"recurrent_dropout":0,"implementation":null,"return_sequences":false,"return_state":false,"go_backwards":false,"stateful":false,"unroll":false},"inbound_nodes":[[["lstm_LSTM2",0,0,{}]]]},{"name":"regressionOutput","class_name":"Dense","config":{"units":1,"activation":"linear","use_bias":true,"kernel_initializer":{"class_name":"VarianceScaling","config":{"scale":1,"mode":"fan_avg","distribution":"normal","seed":null}},"bias_initializer":{"class_name":"Zeros","config":{}},"kernel_regularizer":null,"bias_regularizer":null,"activity_regularizer":null,"kernel_constraint":null,"bias_constraint":null,"name":"regressionOutput","trainable":true},"inbound_nodes":[[["lstm_LSTM3",0,0,{}]]]},{"name":"classificationOutput","class_name":"Dense","config":{"units":3,"activation":"softmax","use_bias":true,"kernel_initializer":{"class_name":"VarianceScaling","config":{"scale":1,"mode":"fan_avg","distribution":"normal","seed":null}},"bias_initializer":{"class_name":"Zeros","config":{}},"kernel_regularizer":null,"bias_regularizer":null,"activity_regularizer":null,"kernel_constraint":null,"bias_constraint":null,"name":"classificationOutput","trainable":true},"inbound_nodes":[[["lstm_LSTM3",0,0,{}]]]}],"input_layers":[["input1",0,0]],"output_layers":[["regressionOutput",0,0],["classificationOutput",0,0]]},"keras_version":"tfjs-layers 4.20.0","backend":"tensor_flow.js"},"weightsManifest":[{"paths":["weights.bin"],"weights":[{"name":"lstm_LSTM1/kernel","shape":[5,120],"dtype":"float32"},{"name":"lstm_LSTM1/recurrent_kernel","shape":[30,120],"dtype":"float32"},{"name":"lstm_LSTM1/bias","shape":[120],"dtype":"float32"},{"name":"lstm_LSTM2/kernel","shape":[30,240],"dtype":"float32"},{"name":"lstm_LSTM2/recurrent_kernel","shape":[60,240],"dtype":"float32"},{"name":"lstm_LSTM2/bias","shape":[240],"dtype":"float32"},{"name":"lstm_LSTM3/kernel","shape":[60,120],"dtype":"float32"},{"name":"lstm_LSTM3/recurrent_kernel","shape":[30,120],"dtype":"float32"},{"name":"lstm_LSTM3/bias","shape":[120],"dtype":"float32"},{"name":"regressionOutput/kernel","shape":[30,1],"dtype":"float32"},{"name":"regressionOutput/bias","shape":[1],"dtype":"float32"},{"name":"classificationOutput/kernel","shape":[30,3],"dtype":"float32"},{"name":"classificationOutput/bias","shape":[3],"dtype":"float32"}]}],"format":"layers-model","generatedBy":"TensorFlow.js tfjs-layers v4.20.0","convertedBy":null}